testing_mode: False
oversampling rate: 5
max_atom: 60

hid_dim: 128
n_layer: 4
use_dropout: True

batch_size: 64
learning rate: 8e-06

VanillaMPNN(
  (embedding): Linear(in_features=33, out_features=128, bias=False)
  (mpnn_layers): ModuleList(
    (0): MPNNLayer(
      (message_make): MPNNMakeMessage(
        (fc_m): Linear(in_features=261, out_features=128, bias=True)
      )
      (fc_h): Linear(in_features=256, out_features=128, bias=False)
      (dropout): Dropout(p=0.3, inplace=False)
      (act): SiLU()
      (gru_cell): GRUCell(128, 128)
    )
    (1): MPNNLayer(
      (message_make): MPNNMakeMessage(
        (fc_m): Linear(in_features=261, out_features=128, bias=True)
      )
      (fc_h): Linear(in_features=256, out_features=128, bias=False)
      (dropout): Dropout(p=0.3, inplace=False)
      (act): SiLU()
      (gru_cell): GRUCell(128, 128)
    )
    (2): MPNNLayer(
      (message_make): MPNNMakeMessage(
        (fc_m): Linear(in_features=261, out_features=128, bias=True)
      )
      (fc_h): Linear(in_features=256, out_features=128, bias=False)
      (dropout): Dropout(p=0.3, inplace=False)
      (act): SiLU()
      (gru_cell): GRUCell(128, 128)
    )
    (3): MPNNLayer(
      (message_make): MPNNMakeMessage(
        (fc_m): Linear(in_features=261, out_features=128, bias=True)
      )
      (fc_h): Linear(in_features=256, out_features=128, bias=False)
      (dropout): Dropout(p=0.3, inplace=False)
      (act): SiLU()
      (gru_cell): GRUCell(128, 128)
    )
  )
  (mpnn_last): MPNNLayer(
    (message_make): MPNNMakeMessage(
      (fc_m): Linear(in_features=261, out_features=128, bias=True)
    )
    (fc_h): Linear(in_features=256, out_features=128, bias=False)
    (gru_cell): GRUCell(128, 128)
  )
  (fc): Sequential(
    (0): Linear(in_features=128, out_features=128, bias=True)
    (1): LeakyReLU(negative_slope=0.01)
    (2): Dropout(p=0.3, inplace=False)
    (3): Linear(in_features=128, out_features=2, bias=True)
  )
  (act): LeakyReLU(negative_slope=0.01)
)
epoch: 0
precision: 0.0000
AUROC: 0.6055
t loss: 0.4582, t acc: 0.8469
v loss: 0.2020, v acc: 0.9700
model score: 0.0000

epoch: 1
precision: 0.0000
AUROC: 0.6126
t loss: 0.4099, t acc: 0.8637
v loss: 0.1596, v acc: 0.9700
model score: 0.0000

epoch: 2
precision: 0.0000
AUROC: 0.6149
t loss: 0.3982, t acc: 0.8647
…
